model/v1_0_100.pth (torch, 91093 bytes, 10 tensors)

conv1.weight f4 [16, 1, 3, 3]
0	0x3f0d0093	0.55079
1	0x3f1dd776	0.6165689
2	0xbe1d4028	-0.15356505
3	0x3e8c2883	0.27374658
4	0x3f1df896	0.6170744
5	0x3ec09664	0.3761474
6	0x3f2f3ebf	0.6845512
7	0x3f04210f	0.51612943
8	0x3f420677	0.75791115
9	0x3e56277a	0.20913497
10	0xbdc2f014	-0.095184475
11	0xbe00f2ed	-0.12592669
12	0xbe60228a	-0.21888176
13	0xbdfa06c9	-0.122083254
14	0xbcb28687	-0.021792663
15	0xbe2004af	-0.15626787
16	0xbe46306a	-0.19354406
17	0xbe1be5d7	-0.15224396
18	0x3d849aa7	0.0647481
19	0x3e111901	0.14169694
20	0xbec733d8	-0.3890674
21	0x3eef7ca5	0.46774784
22	0x3f002ce1	0.5006848
23	0x3e7438e7	0.23849832
24	0x3d952b34	0.07283631
25	0xbe24bfd3	-0.160888
26	0x3ea169da	0.3152607
27	0xbea9d66d	-0.33171406
28	0xbe9cc0a7	-0.30615732
29	0x3ed99247	0.42494413
30	0x3e1c7a9a	0.15281144
31	0x3c39112a	0.011295596
32	0x3eca3d39	0.39499834
33	0x399c67d7	0.00029832005
34	0x3d840426	0.06446104
35	0xbe97c686	-0.2964365
36	0x3f36f2bf	0.7146415
37	0x3ed5c078	0.41748405
38	0x3ec36724	0.38164628
39	0x3ef89a60	0.4855528
40	0xbc4bfcdc	-0.012450423
41	0x3e9b9b4e	0.30391926
42	0xbec3f317	-0.382714
43	0x3e40d04d	0.1882946
44	0x3f01a4dc	0.5064218
45	0xbd286b00	-0.04111767
46	0xbe99433c	-0.29934108
47	0xbd18dfb8	-0.03732273
48	0xbe584363	-0.21119456
49	0x3d2f96c8	0.042868406
50	0xbe5b5a98	-0.21421278
51	0xbe904423	-0.28176984
52	0x3db76740	0.0895524
53	0xbe6d1e63	-0.23156123
54	0xbe417026	-0.18890437
55	0xbe173c9c	-0.14769214
56	0x3ea06818	0.31329417
57	0x3ddc1679	0.10746474
58	0x3ea57242	0.32313734
59	0xbc3c9a1f	-0.011511355
60	0x3ee93b92	0.4555326
61	0x3f200173	0.6250221
62	0xbe0fabdc	-0.14030403
63	0x3df2eb5f	0.118613
64	0xbe31f460	-0.17378378
65	0xbeb2e2f2	-0.3493877
66	0x3cf53812	0.029933963
67	0xbe127c5c	-0.14305252
68	0xbe8b2ffa	-0.2718504
69	0x3ebe4775	0.37163892
70	0x3eb77107	0.3582842
71	0x3eef7a6c	0.46773088
72	0x3da50e49	0.08059365
73	0x3f08b998	0.53408194
74	0x3e4807df	0.19534253
75	0x3e800d5a	0.25010186
76	0x3eb48cb3	0.35263595
77	0x3ed6fd04	0.4198991
78	0xbde9f6a8	-0.11423999
79	0x3eb8e764	0.36114037
80	0xbe049093	-0.12945776
81	0xbe90d414	-0.28286803
82	0x3e824a15	0.25447145
83	0xbd1905d7	-0.037359085
84	0x3e0e5518	0.13899648
85	0xbd00aa8d	-0.03141265
86	0xbe3a0bf5	-0.18168624
87	0x3c876068	0.016525462
88	0x3d20eef4	0.039290383
89	0x3dd46ddb	0.10372516
90	0x3d9cc27f	0.07654285
91	0x3e0e39b0	0.13889194
92	0x3d64c9c0	0.055856466
93	0x3e09f674	0.1347292
94	0x3e14ca36	0.14530262
95	0x3d95b8ce	0.07310639
96	0x3eeaa5d5	0.45829645
97	0x3ec61059	0.38684347
98	0x3eaeeec1	0.3416653
99	0xbebdfe4f	-0.37108085
100	0xbe7969cb	-0.24356763
101	0x3ef43a17	0.4770057
102	0xbed0b27b	-0.4076117
103	0xbe3b6a61	-0.18302299
104	0x3f11d322	0.5696279
105	0x3da83332	0.0821289
106	0x3eb1d581	0.34733203
107	0x3ee81aa8	0.45332837
108	0xbe9e2a0e	-0.3089146
109	0xbc0a9855	-0.00845917
110	0xbea73337	-0.3265626
111	0xba8e4d5e	-0.0010856797
112	0x3ea5aa6e	0.3235659
113	0xbe850c19	-0.25985792
114	0x3d190265	0.0373558
115	0xbe8f90d8	-0.28040195
116	0x3d94d56d	0.0726727
117	0xbe092e3c	-0.13396543
118	0x3e38fb80	0.1806469
119	0x3f3cf9ab	0.73818463
120	0xbe14633b	-0.14490978
121	0x3ef0a711	0.47002462
122	0x3f15f8cb	0.5858275
123	0xbda2e2d5	-0.07953421
124	0x3ebbed5e	0.36704534
125	0xbdd9d70e	-0.106367216
126	0x3d9cd6ee	0.07658182
127	0xbdef1db3	-0.116755866
128	0x3ec44b45	0.38338676
129	0x3e42b528	0.19014418
130	0x3d46eca9	0.04856554
131	0x3e922b2f	0.2854857
132	0xbe5b2096	-0.2139915
133	0xbeb5b8f3	-0.35492668
134	0x3e03ac7b	0.12858765
135	0xbe36f400	-0.17866516
136	0x3ef029b3	0.46906814
137	0xbe0e203e	-0.13879487
138	0x3eef89de	0.46784872
139	0xbd64b735	-0.055838782
140	0x3e75334d	0.23945351
141	0x3f1727bd	0.5904501
142	0x3d2319a4	0.039819375
143	0x3e48573b	0.19564526

conv1.bias f4 [16]
0	0x3e3a067b	0.18166535
1	0x3e679c06	0.22618112
2	0x3d64408b	0.055725615
3	0x3e68ff74	0.22753698
4	0x3e7382b8	0.23780334
5	0xbe1d1c83	-0.15342908
6	0x3e8a1314	0.2696768
7	0x3d06f03a	0.03294394
8	0x3e3c8bf7	0.18412767
9	0xbe6c9a9e	-0.23105857
10	0x3b12ec30	0.002241861
11	0x3e938d0a	0.28818542
12	0xbe83dcc7	-0.25754377
13	0x3d9b3ae7	0.07579594
14	0xbe2a5818	-0.16635168
15	0x3c2489eb	0.010042648

conv2.weight f4 [16, 16, 3, 3]
0	0x3d8e9293	0.069615506
1	0x3c922798	0.017841145
2	0xbd0434e9	-0.03227702
3	0xbdb202f9	-0.08691973
4	0x3d3a083f	0.04541802
5	0xbd8f534b	-0.06998309
6	0x3d21fcf4	0.039547876
7	0x3dac627a	0.084172204
8	0xbd50bdee	-0.05096238
9	0xbdab3e23	-0.08361461
10	0x3d8b872b	0.068128906
11	0xbd3a70b6	-0.045517646
12	0xbb8fe294	-0.004391024
13	0x3d507eb2	0.050902076
14	0x3d69adc7	0.057050493
15	0x3cb830ab	0.022484144
16	0x3d3a0cec	0.04542248
17	0x3d52fa99	0.05150852
18	0x3c65a0f4	0.014015425
19	0x3db48de8	0.08816129
20	0x3d3e0316	0.04638966
21	0xbd02a3aa	-0.031894363
22	0x3cb3bee1	0.021941604
23	0xbd816fb2	-0.06320132
24	0xbb72916e	-0.0037012952
25	0xbd5a0800	-0.053230286
26	0xbd7d41c8	-0.061830312
27	0x3dc2c179	0.09509558
28	0xbcfe0001	-0.031005861
29	0x3b34a997	0.0027566904
30	0xbce219b2	-0.027600143
31	0x3daba2f9	0.08380694
32	0xbd90ae28	-0.07064468
33	0xbd1e3a69	-0.038629923
34	0xbd7c065f	-0.061529513
35	0xbd71342c	-0.058887646
36	0x3c71679e	0.014734177
37	0x3d89b4ce	0.06723939
38	0xbd19d0fa	-0.03755281
39	0xbd54918f	-0.051896628
40	0x3da12c0a	0.07869728
41	0xbabbf9b3	-0.0014341384
42	0xbcee3c2e	-0.02908143
43	0x3d0b8e73	0.034071397
44	0x3ce020b4	0.027359344
45	0x3d372d42	0.044720896
46	0x3cf753a0	0.030191243
47	0x3d5bcace	0.053660206
48	0x3c676298	0.014122628
49	0x3d5900b2	0.05297918
50	0x3d6f901e	0.05848705
51	0xbd7cc150	-0.061707795
52	0x3d3885c2	0.045049436
53	0x3d441416	0.047870718
54	0xbd64064f	-0.05567008
55	0xbcabb2b2	-0.020959232
56	0x3c2b7448	0.010464735
57	0xbd5e493a	-0.054269053
58	0xbb5917ea	-0.0033125826
59	0xbdbfa274	-0.09357157
60	0xbc6f7d45	-0.014617269
61	0x3dbed47b	0.09317871
62	0xbcc0bb4c	-0.02352681
63	0x3d41e266	0.04733505
64	0x3c30d5fb	0.010793204
65	0xbc56dfb5	-0.013114859
66	0x3cd7b611	0.026331933
67	0xbd7cb0d3	-0.06169207
68	0xbd87f1f5	-0.066379465
69	0x3cf074a0	0.029352486
70	0xbd21e18a	-0.03952173
71	0x3db074d3	0.086160325
72	0x3dc0c175	0.09411899
73	0x3cc29dec	0.023756944
74	0x3d7f98e3	0.062401664
75	0xbd5f1967	-0.054467585
76	0xbcc475cf	-0.023981957
77	0xbc3cd63f	-0.01152569
78	0xbcd213e2	-0.025644246
79	0x3d3bac3a	0.045818545
80	0xbd8167b2	-0.063186064
81	0xbd7dbc25	-0.061947007
82	0x3c18d1fa	0.009327406
83	0xbd00ff6e	-0.031493597
84	0xbd7fafac	-0.062423393
85	0xbc48fc5b	-0.0122671975
86	0xbd77e43e	-0.060520403
87	0xbc721f17	-0.01477792
88	0xbd4ff106	-0.050766967
89	0x3d2d7a21	0.0423528
90	0xbd72ec46	-0.05930736
91	0x3d511ad8	0.05105099
92	0xbda7472e	-0.08167873
93	0xbdb3c3b6	-0.08777563
94	0x3d9be2fb	0.076116525
95	0x3cfbed62	0.030752841
96	0xbd11251b	-0.035435777
97	0x3de5a9d6	0.11214034
98	0x3d1e6d37	0.038678374
99	0x3d9018d5	0.07035986
100	0xbd4866db	-0.048926216
101	0xbb257652	-0.0025247526
102	0x3d95eca5	0.07320527
103	0x3d9b3cab	0.07579931
104	0xbd80216f	-0.06256377
105	0x3db6c9ba	0.08925195
106	0x3cacb6ba	0.021083225
107	0x3d18beaa	0.037291206
108	0x3c1f7b57	0.009733996
109	0xbd9b6cd7	-0.07589119
110	0xbd195acf	-0.037440117
111	0xbd32722a	-0.043565907
112	0x3c988092	0.018615995
113	0x3d80519a	0.06265564
114	0xbcf229d2	-0.029560957
115	0x3d316621	0.04331029
116	0x3d304a26	0.043039463
117	0x3d9d0be6	0.07668285
118	0x3db5b61d	0.08872626
119	0xbd935018	-0.07193011
120	0xbcf6fc24	-0.030149527
121	0xbc057311	-0.00814511
122	0xbd96c849	-0.0736242
123	0x3dcdc601	0.10047532
124	0xbc5afa0d	-0.013365281
125	0xbd011c9a	-0.031521417
126	0xbbf8bb69	-0.0075907004
127	0xba576068	-0.0008215965
128	0xbd0fa3a0	-0.035068154
129	0x3d6ba519	0.057530496
130	0x3d8ba53e	0.06818627
131	0xbca56e3b	-0.020194164
132	0x3d3abfa8	0.045592934
133	0x3c9e029a	0.01928835
134	0x3d7a20a8	0.0610663
135	0x3b70772f	0.0036692133
136	0xbcf564e0	-0.029955328
137	0x3d43c614	0.047796324
138	0xbd11d0c2	-0.035599478
139	0xbd8a84a1	-0.06763578
140	0xb89810f5	-7.251083e-05
141	0xbd791f08	-0.06082061
142	0x3d0cc185	0.034364242
143	0xbcfae68b	-0.03062751
144	0xbd8299b4	-0.06376973
145	0x3d35b5c0	0.044362783
146	0x3cee24a5	0.029070208
147	0xbcb665c3	-0.02226532
148	0xbde42897	-0.111405544
149	0xbd85b013	-0.06527724
150	0x3dcf0239	0.10107846
151	0x3b36b91c	0.002788133
152	0x3db57914	0.088609844
153	0xbda52f8e	-0.08065711
154	0xbb559b8e	-0.0032593939
155	0x3d229728	0.039694935
156	0x3ccb15ea	0.024790723
157	0x3d505419	0.05086145
158	0xbca8c30a	-0.020600814
159	0x3cd64248	0.026154652
160	0xbc8a8b2c	-0.016912065
161	0xbce56871	-0.028003903
162	0x3dab7f21	0.08373857
163	0x3d1ca98d	0.038247634
164	0x3ca2f738	0.019893274
165	0xbc38a808	-0.0112705305
166	0x3d4c35e7	0.049856093
167	0xbdc669c8	-0.09688145
168	0x3c2dfbda	0.010619128
169	0x3cfcec5f	0.03087443
170	0x3dd349bd	0.10316799
171	0xbd2e4b57	-0.04255232
172	0x3d62c2bd	0.0553615
173	0xbc198a39	-0.009371334
174	0x3d8726af	0.06599175
175	0xbd62045d	-0.055179942
176	0xbd79da34	-0.06099911
177	0x3ca93be6	0.020658445
178	0x3caf0d7e	0.021368738
179	0x3d9898cc	0.07451019
180	0x3d6c5475	0.057697732
181	0x3d0de383	0.0346408
182	0x3d4fbe42	0.050718553
183	0xbd8ddf27	-0.069273286
184	0x3c3f4313	0.011673707
185	0xbd63efaa	-0.055648483
186	0xbc3a7b80	-0.011381984
187	0x3d174c7f	0.036938187
188	0x3cbf10f5	0.023323515
189	0xbd08959b	-0.0333458
190	0x3d7c444e	0.061588578
191	0x3bdda850	0.006764449
192	0xbc326ce8	-0.010890223
193	0x3da32a95	0.07967106
194	0xbce86960	-0.02837056
195	0x3c95301c	0.018211417
196	0x3d3d9b76	0.046290837
197	0x3c8496ec	0.016185246
198	0x3d642739	0.05570147
199	0x3d1c1cd4	0.03811343
200	0x3cd58951	0.026066454
201	0xbcff1f37	-0.031142814
202	0xbdaee918	-0.08540553
203	0xbd89b94f	-0.06724798
204	0x3da66417	0.081245594
205	0xbbf8e5dc	-0.0075957607
206	0x3dc776cf	0.09739458
207	0xbd46ae76	-0.048506223
208	0x3d486fd2	0.048934765
209	0xbc93406d	-0.017975057
210	0x3d19524b	0.037431996
211	0x3c6940ab	0.014236609
212	0xbd90efca	-0.07076986
213	0x3d99f495	0.075173534
214	0x3dcc8dad	0.0998796
215	0xbcd438b3	-0.025905943
216	0xbc9b7cd0	-0.018980414
217	0x3b90b678	0.004416283
218	0x3bffe713	0.0078095286
219	0xb7cf3635	-2.4701565e-05
220	0xbdbfa22a	-0.09357102
221	0xbc9e8653	-0.01935116
222	0x3d20b384	0.0392337
223	0x3db1dd0b	0.08684739
224	0xbc39da4b	-0.011343549
225	0xbbb12a81	-0.005406678
226	0xbd13ea47	-0.036112096
227	0x3d0789af	0.03309029
228	0x3805893a	3.1837473e-05
229	0x3d9d1296	0.076695606
230	0xbc705a81	-0.014670015
231	0xbd086331	-0.03329772
232	0x3d3f6274	0.04672475
233	0x3d369811	0.044578616
234	0x3bede5fc	0.0072600823
235	0xbc44ba89	-0.012007364
236	0x3d7370a1	0.059433583
237	0x3bd0af7e	0.0063685765
238	0x3a22b7c1	0.0006207191
239	0xbd279a5f	-0.040918704
240	0xbb7c76e7	-0.003852302
241	0x3ca2e216	0.019883197
242	0x3d3a5ef6	0.045500718
243	0xbd67792c	-0.056512043
244	0x3ca22a87	0.01979567
245	0xbd876893	-0.06611743
246	0xbdc52c51	-0.09627593
247	0x3c946e45	0.018118987
248	0xbdc39fdc	-0.09551975
249	0x3dac6ca6	0.084191605
250	0xbd691496	-0.056904398
251	0x3d1d2075	0.03836103
252	0xbd3135eb	-0.04326431
253	0x3d78233e	0.060580485
254	0x3d9e99c1	0.0774417
255	0x3d8f9216	0.070102856

conv2.bias f4 [16]
0	0x3d53df33	0.05172653
1	0x3cfa66b9	0.03056656
2	0x3cb7399b	0.022366336
3	0x3a9edb22	0.001211975
4	0x3cfbb180	0.030724287
5	0x3dbe8528	0.09302741
6	0x3c45350c	0.012036573
7	0xbb92bebf	-0.004478305
8	0x3df77659	0.1208312
9	0xbd25ffb9	-0.04052708
10	0x3c1ac9d2	0.009447532
11	0x3de5f453	0.11228242
12	0xbbec2c16	-0.007207404
13	0x3ae0faf7	0.0017164637
14	0xbda6d462	-0.081459776
15	0x3da06e88	0.07833582

conv3.weight f4 [16, 16, 3, 3]
0	0xbb969872	-0.0045958096
1	0x3d8e2dde	0.06942342
2	0x3da98225	0.08276776
3	0x3db29a96	0.08720891
4	0xbd8140ed	-0.06311212
5	0xbd4463b4	-0.047946647
6	0x3d2c545c	0.04207264
7	0xbd4e58b2	-0.050377555
8	0x3d891b3b	0.06694647
9	0xbd85655f	-0.065134756
10	0xbb72d14a	-0.0037051016
11	0x3d87128d	0.06595335
12	0xbd04f613	-0.032461237
13	0xbcb887fe	-0.022525784
14	0xbc6fdbe9	-0.014639833
15	0x3daca09b	0.084290706
16	0x3a9ac412	0.0011807701
17	0x3c893272	0.016747687
18	0xbc8c83d4	-0.017152704
19	0xbbce6aff	-0.006299376
20	0xbc2cf431	-0.010556267
21	0xbb7f526f	-0.0038959046
22	0x3a8952dd	0.0010476966
23	0xbbb38967	-0.005479026
24	0x3d7c0768	0.0615305
25	0x3b9a7ae3	0.0047143563
26	0xbd8e202d	-0.06939731
27	0x3c0e18ca	0.008672902
28	0xbd0cb417	-0.034351435
29	0x3d7d44a1	0.061833028
30	0xbd233bef	-0.03985208
31	0x3d7d9bae	0.061916046
32	0x3df5775a	0.11985655
33	0x3d0dcf3c	0.034621462
34	0xbd45271f	-0.048133012
35	0x3d0fb1b5	0.035081584
36	0xbd3913a4	-0.045184746
37	0xbdccde09	-0.10003287
38	0x3cb47cce	0.022032168
39	0xbdc85e8a	-0.09783657
40	0xbdc936c6	-0.098249
41	0x3df98792	0.12184061
42	0x3d830888	0.063981116
43	0x3c1f24ab	0.009713332
44	0xbd4f1f75	-0.05056711
45	0xbe08752f	-0.13325952
46	0x3e8e14a6	0.27750129
47	0x3d817a7e	0.06322192
48	0xbe014a5d	-0.12626024
49	0x3e1b22e7	0.15150033
50	0xbdc15748	-0.09440476
51	0xbd0139f5	-0.031549413
52	0x3d3c5c17	0.04598626
53	0xbd04cc0d	-0.03242116
54	0xbc2bf872	-0.010496246
55	0x3d7bae86	0.061445735
56	0x3cb8f750	0.022578865
57	0xbd9e5989	-0.07731921
58	0x3d449f42	0.048003443
59	0x3d9cf36f	0.07663619
60	0xbb98a6fd	-0.0046585784
61	0x3d071955	0.032983143
62	0x3c8f9f75	0.01753209
63	0xbb89bc43	-0.0042033507
64	0xbe073101	-0.13202287
65	0x3baebc8c	0.005332535
66	0x3d51b6cf	0.05119973
67	0xbc6c730d	-0.014431727
68	0xbdc79f0f	-0.09747135
69	0x3e44a99e	0.19205329
70	0x3db5904f	0.08865415
71	0x3dfc858a	0.12330158
72	0xbdf5bab0	-0.119984984
73	0x3db1128d	0.086461164
74	0xbc816f90	-0.015800267
75	0xbc9ecb95	-0.019384185
76	0x3d61a46c	0.055088446
77	0xbcc9db1e	-0.024640616
78	0xbc005f4c	-0.007835221
79	0xbcb2997d	-0.021801705
80	0xbd6ce2ce	-0.057833485
81	0xbc26282b	-0.010141413
82	0xbca92dfd	-0.020651812
83	0x3db7b268	0.08969575
84	0x3d0549e9	0.03254119
85	0xbc899d30	-0.016798586
86	0x3de86682	0.11347677
87	0x3dc38dc9	0.09548528
88	0x3d6989bd	0.057016123
89	0x3db9b2f5	0.090673365
90	0xbcf612f2	-0.03003833
91	0x3dd3b368	0.103369534
92	0xbd1f3127	-0.038865235
93	0x3d24eac7	0.040262964
94	0x3e07e518	0.13270986
95	0xbd09a7ed	-0.033607412
96	0x3d51c372	0.05121178
97	0x3d04143b	0.032245856
98	0x3d343806	0.04399874
99	0xbcf2ee5a	-0.02965467
100	0xbda16153	-0.07879891
101	0x3e291f0a	0.16515747
102	0xbe295b34	-0.16538697
103	0x3db68336	0.08911745
104	0x3e278b8a	0.16361824
105	0x3d90c424	0.07068661
106	0xbdb7a8b7	-0.08967727
107	0xbd9fb9b6	-0.077990934
108	0x3d67d607	0.056600597
109	0xba32c72b	-0.00068198395
110	0xbd2bd274	-0.04194875
111	0xbd48af4d	-0.048995305
112	0xbd8196cf	-0.063275926
113	0xbcfff839	-0.031246291
114	0xbc9c8860	-0.019107997
115	0x3d073da6	0.033017777
116	0x3d3b787e	0.045769207
117	0x3ccfa916	0.025349181
118	0x3d6567b1	0.05600709
119	0xbdb2e4ba	-0.087350324
120	0x3d834932	0.06410445
121	0xbd76d25d	-0.06025921
122	0x3dbc0c26	0.09182005
123	0xbd450f99	-0.04811058
124	0xbc554a55	-0.01301821
125	0x3c901544	0.017588265
126	0x3acad4ee	0.0015474835
127	0xbd93b826	-0.07212858
128	0xbc88d292	-0.01670197
129	0x3cc07aa2	0.023495976
130	0x3d3e829e	0.046511285
131	0xbda4c97b	-0.08046242
132	0xbd1947ac	-0.037421867
133	0x3d0e2222	0.03470052
134	0x3d1093a6	0.03529706
135	0xbe3c2b96	-0.18376002
136	0x3dcf2133	0.10113754
137	0x3e481e89	0.19542898
138	0xbe32a32e	-0.1744506
139	0x3dc56405	0.09638218
140	0x3dcc409c	0.09973261
141	0x3d35cf72	0.04438729
142	0x3d174ec9	0.03694037
143	0x3bc8ca77	0.0061276513
144	0x3c619a54	0.013769705
145	0x3d35add7	0.04435524
146	0xbd6c75d1	-0.057729546
147	0xbd2a89b0	-0.041635215
148	0x3ce55313	0.027993714
149	0xbcc99342	-0.02460635
150	0xbcfd93d6	-0.030954283
151	0xbdc4f3ed	-0.09616838
152	0x3bf2005f	0.007385298
153	0xbb949ef3	-0.00453555
154	0xbdeed17e	-0.11661051
155	0x3c39b98b	0.011335741
156	0xbdc4046f	-0.09571158
157	0x3d0687c0	0.032844305
158	0x3cb3a327	0.021928383
159	0x3c32008d	0.010864389
160	0x3d0d5d72	0.034512945
161	0xbba98806	-0.005173686
162	0xbe474929	-0.19461502
163	0xbbfa5769	-0.0076398146
164	0xbddd3867	-0.108017735
165	0xbdddfc25	-0.108391084
166	0x3e21672a	0.1576201
167	0x3cf45c1b	0.029829076
168	0xbccc5ac7	-0.02494563
169	0xbdb50ec2	-0.088407055
170	0xbe2c27d0	-0.16812062
171	0xbd92fd83	-0.0717726
172	0xbd7e647e	-0.062107556
173	0x3c8791d1	0.016549023
174	0xbd0617f3	-0.032737684
175	0x3d13d9f8	0.036096543
176	0xbd69e20f	-0.057100352
177	0x3d9266a1	0.07148481
178	0x3d8855bc	0.066569775
179	0x3dd1d3aa	0.1024545
180	0xbd8269a2	-0.06367804
181	0x3e216089	0.15759481
182	0xbd773815	-0.06035622
183	0x3e1fbf22	0.15600255
184	0x3df99ab4	0.121877104
185	0xbd4ef075	-0.050522286
186	0x3e1aa5d2	0.15102318
187	0xbcd9a930	-0.026569933
188	0x3d14ba6f	0.03631061
189	0x3e18703d	0.14886566
190	0xbe3d9485	-0.18513687
191	0xbbaeb010	-0.005331047
192	0x3dbe1545	0.092814006
193	0xbe5b0235	-0.2138756
194	0xbc0d40df	-0.0086214235
195	0x3d1c6e7a	0.038191296
196	0x3cceb877	0.025234444
197	0x3d4f6a7f	0.050638672
198	0xbd7f4795	-0.062324125
199	0x3d6a1260	0.05714643
200	0xbccf3070	-0.025291651
201	0x3d642bf3	0.055705976
202	0x3d704ba0	0.05866587
203	0xbd1e1356	-0.03859266
204	0x3d8f5ff5	0.07000724
205	0x3d870f04	0.06594661
206	0xbda97d39	-0.082758375
207	0x3dbdab86	0.09261231
208	0x3d140ca7	0.03614488
209	0xbe0455fc	-0.12923425
210	0x3e105449	0.14094652
211	0x3cf04f45	0.029334674
212	0x3dbc00f3	0.091798685
213	0x3ca0f5d5	0.019648472
214	0xbd81e881	-0.06343175
215	0xbdbcd384	-0.09220031
216	0x3d694382	0.056949146
217	0xbe3562ef	-0.17713521
218	0xbc64b374	-0.013958801
219	0x3ddffe33	0.109371565
220	0xbdb9c898	-0.09071463
221	0xbc89b222	-0.016808573
222	0x3ded863d	0.115978695
223	0xbcb3738f	-0.021905689
224	0xbd3b341e	-0.045704
225	0x3dc9924e	0.098423585
226	0xbd0158ad	-0.03157871
227	0xbdc85024	-0.097809106
228	0x3da90a61	0.08253933
229	0xbc603b0e	-0.013685955
230	0xbc8b60e6	-0.017013978
231	0xbd8a79d1	-0.06761516
232	0x3b981ad4	0.00464187
233	0xbcab121b	-0.020882657
234	0x3ded683f	0.11592149
235	0xbc5f61c1	-0.013634146
236	0x3db2a462	0.0872276
237	0x3da5d0c3	0.08096459
238	0xbd81b3cd	-0.063331224
239	0xbdc6a783	-0.09699919
240	0xbd1c7ff9	-0.03820798
241	0x3d8fa36b	0.070135914
242	0xbd3e1624	-0.046407834
243	0x3e9012a5	0.28139225
244	0xbcd18791	-0.025577338
245	0xbdef4d85	-0.116847076
246	0x3e6c2815	0.23062165
247	0x3c7f26a4	0.0155731775
248	0xbe47ad48	-0.19499695
249	0x3e1f1008	0.15533459
250	0x3e333db5	0.17504008
251	0x3d8698f9	0.06572146
252	0x3b638823	0.0034718595
253	0x3ccbfdc5	0.02490128
254	0xbd7f0484	-0.062260166
255	0xbd721a1f	-0.059106942

conv3.bias f4 [16]
0	0xbd32e55e	-0.043675773
1	0xbddbfe64	-0.107418805
2	0xbd32ba0d	-0.043634463
3	0xbda0d0b2	-0.078523055
4	0xbd32a7cf	-0.043617066
5	0xbd96ecae	-0.07369362
6	0x3c977897	0.018490119
7	0xbd879e4c	-0.066219896
8	0xbda45738	-0.08024448
9	0xbd1c9479	-0.038227532
10	0x3e62ae50	0.22136807
11	0x3d729ff2	0.059234567
12	0xbd0537d3	-0.03252394
13	0xbbc5a060	-0.006031081
14	0xbdc12d63	-0.09432485
15	0xbb4ca38e	-0.0031225416

fc1.weight f4 [64, 256]
0	0x3d02b4e0	0.031910777
1	0x3c8223cd	0.015886212
2	0xbd4cc70c	-0.049994513
3	0x3d5f26ad	0.054480243
4	0xbce71644	-0.02820886
5	0x3e1e9f8e	0.15490553
6	0x3d80027f	0.06250476
7	0xbd50df61	-0.05099428
8	0xbd65a616	-0.056066595
9	0x3c3f3530	0.011670396
10	0xbd279cd5	-0.04092105
11	0xbd8817c6	-0.066451594
12	0x3d1b85e0	0.03796947
13	0xbd442d15	-0.047894556
14	0x3d09de74	0.033659413
15	0x3c8251f7	0.015908225
16	0xbcdc8807	-0.026920332
17	0x3d1c268a	0.03812269
18	0xbd151a31	-0.03640193
19	0xbd4f7b9f	-0.050655004
20	0xbd54b583	-0.051930916
21	0x3d8c2569	0.06843073
22	0x3c41acf2	0.0118210185
23	0xbda47243	-0.08029606
24	0xbd95bd99	-0.073115535
25	0x3c1f3778	0.009717815
26	0x3d485068	0.048904806
27	0x3cbba9c9	0.022908108
28	0xbd3fb3ba	-0.04680226
29	0x3d125b8a	0.03573183
30	0xbd397e1b	-0.04528628
31	0xbb2c9961	-0.0026336538
32	0x39c9ff00	0.00038527697
33	0xbc66db70	-0.014090404
34	0x3c34fe68	0.011046983
35	0xbbbc85c0	-0.005753249
36	0xbb9cfaca	-0.0047906386
37	0x3d460aa7	0.048350003
38	0x3cdbfc50	0.02685371
39	0xbd64b266	-0.055834197
40	0xba91eba1	-0.0011132845
41	0xbad0b3ab	-0.0015922686
42	0xbd1ff6d4	-0.039053753
43	0x3c0c0ad0	0.0085475
44	0x3d2b8e39	0.04188368
45	0x3d471296	0.04860171
46	0x3d3c767a	0.046011426
47	0x3c7ba518	0.015359186
48	0xbd834c5f	-0.06411051
49	0xbd1f484f	-0.03888732
50	0xbc94e08c	-0.018173479
51	0xbd1af4e7	-0.037831213
52	0xbd04d4ca	-0.032429494
53	0xbe0c100f	-0.13678001
54	0xbd59745c	-0.053089485
55	0x3d994199	0.07483215
56	0x3d6f8ea1	0.05848563
57	0xba1cec8f	-0.0005986178
58	0x3d574fd4	0.052566364
59	0x3d1c21d0	0.038118184
60	0x3d21ac5c	0.039471015
61	0xbcce70f1	-0.025200339
62	0xbcd7d836	-0.026348215
63	0xbcfa71e3	-0.030571884
64	0x3d16a68b	0.03677992
65	0xbced3124	-0.028954096
66	0x3d6e8144	0.058228746
67	0xbc3f440f	-0.011673941
68	0x3b72b9f5	0.0037037109
69	0xbd688216	-0.056764685
70	0x3b852c03	0.0040640845
71	0xbd1f9b73	-0.038966607
72	0x3d042e55	0.03227075
73	0x3be68582	0.0070349583
74	0xbd5895f3	-0.052877378
75	0xbd922763	-0.07136419
76	0xbcfddc12	-0.030988727
77	0x3d16b1da	0.036790706
78	0xbd298fcb	-0.041396897
79	0x3d20bc2b	0.03924195
80	0xbac5be47	-0.0015086614
81	0xbcf48c0f	-0.029851941
82	0x3d1104b8	0.03540489
83	0x3b9ab2f9	0.0047210422
84	0x3d995c9d	0.07488368
85	0x3d1957fd	0.037437428
86	0x3d3729b4	0.044717506
87	0x3d56da0c	0.05245404
88	0x3d78fbdf	0.060787078
89	0xbaf1ca64	-0.0018447158
90	0xbccdaf55	-0.025108019
91	0xbca05ae9	-0.0195746
92	0x3cc45de1	0.023970546
93	0x3c27ffd9	0.01025387
94	0x3ca92244	0.020646222
95	0x3d68381f	0.056694146
96	0x3d5a7df9	0.053342793
97	0xbcf71936	-0.030163389
98	0xbc1998f7	-0.009374849
99	0x3d8246c0	0.06361151
100	0xbdbe0015	-0.092773594
101	0xbe0c847e	-0.13722417
102	0xbd27cef2	-0.040968843
103	0xbcb34429	-0.021883087
104	0xbd7837dc	-0.060600147
105	0x3cf67f59	0.030090021
106	0x3cbc7c49	0.023008483
107	0x3d7aa373	0.061191034
108	0xbc7aa703	-0.015298608
109	0x3cf9afb6	0.030479293
110	0xbd09a63c	-0.0336058
111	0xbcc5d2f2	-0.024148438
112	0xbcf63a23	-0.030057019
113	0xbd9e7970	-0.07738006
114	0xbc5438bc	-0.01295298
115	0x3cdbc54e	0.02682748
116	0xbd11f2b3	-0.035631847
117	0x3dba90a9	0.09109623
118	0xbc9566aa	-0.01823743
119	0x3d8a0e66	0.067410275
120	0x3c4e178a	0.012578854
121	0x3ccead1c	0.02522903
122	0x3cde7100	0.027153492
123	0x3c10e03c	0.008842524
124	0x3d4ea8d6	0.050453983
125	0x3d0ecb67	0.03486195
126	0xbd5e1420	-0.05421841
127	0xbd740245	-0.059572477
128	0xbc966da9	-0.018362837
129	0xbc841db0	-0.016127437
130	0xbe0d861e	-0.13820693
131	0x3b56fc59	0.003280422
132	0x3c92946d	0.01789304
133	0xbd8df1df	-0.06930899
134	0xbda1fe71	-0.07909859
135	0x3d28ffbb	0.04125951
136	0xbd68a06c	-0.056793615
137	0x3ccc8cec	0.02496954
138	0x3d462507	0.048375156
139	0xbce3dac3	-0.027814275
140	0x3d6a5157	0.057206478
141	0x3d0427db	0.03226457
142	0x3d716d57	0.058942165
143	0x3d76bf3f	0.06024098
144	0x3d0331b4	0.032029822
145	0x3d25eb94	0.040507868
146	0x3d713b36	0.05889436
147	0x3c824a34	0.015904523
148	0x3d0a6652	0.033788987
149	0xbd316e7c	-0.043318257
150	0x3d3c9ffa	0.046051003
151	0xbcc8e150	-0.0245215
152	0xbc1f5c72	-0.0097266305
153	0xbc9fd224	-0.019509383
154	0x3d276e46	0.04087665
155	0xbd28f21a	-0.04124651
156	0x3b9089e0	0.004410967
157	0xbb151b00	-0.002275169
158	0xbd77306c	-0.060348913
159	0xbc039950	-0.008032158
160	0xbc87d4ce	-0.016580965
161	0x3d8f22db	0.0698907
162	0x3d865b21	0.0656035
163	0x3dbd989a	0.09257622
164	0x3c8fa818	0.017536208
165	0x3d9f501d	0.07778952
166	0xbdaaadb9	-0.08333916
167	0x3d953e0e	0.072872266
168	0xbda0cdf7	-0.07851785
169	0x3ba5c56f	0.0050589363
170	0x3bc881a7	0.0061189714
171	0x3cda971e	0.026683386
172	0xbd646192	-0.055757113
173	0xbd5dafc6	-0.05412271
174	0xbb946fa4	-0.00452991
175	0xbc479d3b	-0.012183483
176	0x3cdf8202	0.027283672
177	0xbba9e73e	-0.005185037
178	0x3e0a81bd	0.13526054
179	0x3d15dca9	0.03658739
180	0x3cb17164	0.021660514
181	0x3e08a72b	0.1334502
182	0xbda1fd23	-0.0790961
183	0xbdcdcfaf	-0.10049378
184	0xbcd8e86e	-0.026478019
185	0x3d2d0df3	0.04224963
186	0x3d8179a5	0.0632203
187	0xbc73623c	-0.014854964
188	0x3c7fdc33	0.015616464
189	0x3daf3431	0.085548766
190	0xbca612d9	-0.02027266
191	0x3d826dce	0.063686
192	0xbd154e56	-0.03645166
193	0xbd40a31e	-0.04703056
194	0xbd3550f2	-0.04426665
195	0x3d04e218	0.032442182
196	0xbd4dcf2d	-0.050246406
197	0xbccd02ba	-0.025025714
198	0x3d7f5bd4	0.062343433
199	0xbd260f72	-0.040542074
200	0xbcd9d63f	-0.026591418
201	0xbc12a44c	-0.008950304
202	0xbd0eb14a	-0.034837045
203	0x3d167dbe	0.03674101
204	0xbd203397	-0.0391117
205	0xbc82a3f6	-0.015947323
206	0xbc220ff4	-0.009891499
207	0x3d6a9672	0.057272382
208	0x3d70fc6e	0.058834486
209	0x3c349953	0.0110228835
210	0xbcfc45cb	-0.030794999
211	0x3b6806fd	0.0035404556
212	0xbcfe9fda	-0.031082083
213	0x3d29de3f	0.041471716
214	0x3d056b5b	0.032573085
215	0xbc581763	-0.01318917
216	0x3d327304	0.04356672
217	0x3c913c73	0.01772902
218	0x3b72b751	0.0037035535
219	0x3c860550	0.016359955
220	0xbbc4dea7	-0.0060079875
221	0x3d6a486e	0.05719798
222	0xbca61410	-0.020273238
223	0x3bd7bcd0	0.0065837875
224	0x3c1fde94	0.009757657
225	0x3d25f6a8	0.040518433
226	0xbd57f174	-0.052720502
227	0xbd338b11	-0.043833796
228	0xbd70d46d	-0.058796335
229	0x3d26a4f5	0.04068466
230	0xbd569cfb	-0.052395802
231	0x3d0bfc03	0.034175884
232	0x3c393066	0.011303043
233	0xb9c3a4f2	-0.00037316192
234	0x3d745a38	0.05965635
235	0xbcbf7250	-0.023369938
236	0x3c89e3b1	0.016832205
237	0x3c840a0d	0.016118074
238	0xbd4d5891	-0.05013329
239	0xbd611f05	-0.054961223
240	0x3d569a4e	0.05239325
241	0x3cae42b5	0.021272043
242	0x3da5acf0	0.08089626
243	0xbd163488	-0.03667119
244	0x3d94f659	0.072735496
245	0x3de57cda	0.11205454
246	0x3d2541ce	0.04034596
247	0xbd4e8a88	-0.050425082
248	0xbbd7ff98	-0.0065917484
249	0x3c90c35f	0.017671285
250	0x3c85e460	0.01634425
251	0xbc61734f	-0.013760402
252	0x3ca619c5	0.02027596
253	0xbd4745c8	-0.048650533
254	0xbd6bd692	-0.057577677
255	0x3cbb5560	0.022867858

fc1.bias f4 [64]
0	0xbcd15ee6	-0.025557946
1	0xbd2133a0	-0.039355874
2	0xbb97337a	-0.004614291
3	0xbc72a6dd	-0.014810291
4	0xbca615a9	-0.020274
5	0x3d2e2e56	0.04252466
6	0xbdb8a9fa	-0.090167955
7	0xbd6723f0	-0.056430757
8	0xbc56b9c8	-0.013105817
9	0xbb1498cf	-0.0022674089
10	0x3d725a14	0.059167936
11	0x3d6872b2	0.056750007
12	0x3dc76eb0	0.09737909
13	0xbb763535	-0.0037568335
14	0x3c345ded	0.011008722
15	0xbd4ed3be	-0.0504949
16	0x3d05510f	0.032548007
17	0xbd577fa2	-0.052611955
18	0x3ccafa79	0.024777638
19	0x3d32f8ab	0.04369418
20	0xbdb4c984	-0.088274986
21	0x3d71c581	0.059026245
22	0xbd08ce3b	-0.0333998
23	0xbd16df02	-0.03683377
24	0xbd66c6e5	-0.056342024
25	0x3d11a766	0.035560034
26	0x3cdab1f5	0.026696185
27	0x3dc0ffcf	0.094237916
28	0xbd7d589f	-0.061852094
29	0xbbfb90e8	-0.0076771863
30	0xbc499c08	-0.012305267
31	0xbbb16be8	-0.0054144748
32	0x3d807d96	0.062739536
33	0x3d8c94e7	0.06864338
34	0xbc4e99de	-0.012609927
35	0xbd81be8e	-0.063351735
36	0x3d934351	0.07190574
37	0xbdaba350	-0.08380759
38	0x3cf68c46	0.030096184
39	0xbd85d7b9	-0.065352865
40	0xbcb9e9ca	-0.022694487
41	0x3cf7d726	0.030253958
42	0xbb238ac8	-0.0024954546
43	0xbd1281c9	-0.035768304
44	0x3d7e1ad1	0.062037293
45	0x3d518854	0.051155403
46	0xbc3bde76	-0.011466613
47	0x3d728e79	0.059217904
48	0x3b1f37cf	0.002429474
49	0xbcedd0fe	-0.02903032
50	0xbd4111d6	-0.04713615
51	0xbd45939e	-0.04823648
52	0xbd62024c	-0.05517797
53	0x3d298df1	0.04139513
54	0x3c6f83bf	0.014618813
55	0x3d2ebe91	0.042662207
56	0x3d4c80ac	0.0499274
57	0x3d45aa2b	0.048257988
58	0x3d9eab3b	0.07747503
59	0xbd06e553	-0.032933544
60	0x3daf5be6	0.0856245
61	0x3d371018	0.044693083
62	0xbcd55a84	-0.026044138
63	0x3ce1dcdf	0.02757114

fc2.weight f4 [10, 64]
0	0xbd3c1ae7	-0.045924094
1	0x3e720894	0.23636085
2	0x3e1e1d4b	0.15440862
3	0xbe6893e1	-0.22712661
4	0xbd44be72	-0.048033185
5	0xbd98e312	-0.07465185
6	0xbe76e51d	-0.24110837
7	0xbe11c17b	-0.14233963
8	0xbd69451d	-0.056950677
9	0x3e3bf246	0.18354139
10	0xbe175445	-0.1477824
11	0x3c4d0047	0.012512273
12	0xbeb2bc49	-0.34909275
13	0x3dae4b02	0.085104
14	0x3dfef1d7	0.12448471
15	0xbcd3626e	-0.02580377
16	0x3d4cab89	0.049968276
17	0x3cb8bb72	0.022550318
18	0x3dea9023	0.11453273
19	0xbe32a539	-0.1744584
20	0x3d6cef30	0.057845294
21	0xbe867c37	-0.26266643
22	0xbdea0bbb	-0.11428019
23	0x3dff7ce5	0.124749936
24	0x3e4609e0	0.19339705
25	0xbe85d944	-0.26142323
26	0xbdf96ae1	-0.12178589
27	0xbe39b707	-0.18136226
28	0x3e56f692	0.20992497
29	0x3cfe0f63	0.031013196
30	0xbe05dd34	-0.13072664
31	0xbd380583	-0.04492713
32	0xbce92738	-0.028461084
33	0x3cb2d83d	0.021831626
34	0xbe189c1a	-0.14903298
35	0x3e5995d0	0.21248555
36	0x3e2a4ad3	0.16630106
37	0x3e365859	0.1780714
38	0xbe34ad54	-0.17644244
39	0x3d10f0a8	0.035385758
40	0x3db53f5e	0.08849977
41	0x3cdf8007	0.027282728
42	0xbd3847b1	-0.044990245
43	0x3e25be96	0.16185984
44	0xbe2654f1	-0.1624334
45	0xbdd793e0	-0.10526252
46	0xbcc2de3d	-0.023787612
47	0x3e26bf5f	0.1628394
48	0x3c42d470	0.011891469
49	0xbe2ff65e	-0.17183825
50	0x3e9633d7	0.29336426
51	0xbcfd5abf	-0.03092706
52	0xbe021499	-0.1270317
53	0xbd61442b	-0.05499665
54	0xbda7e399	-0.08197708
55	0xbdf5825d	-0.119877554
56	0xbd29d12a	-0.04145924
57	0x3ddf3082	0.10897924
58	0xbce8661e	-0.028369006
59	0x3b5f2962	0.0034051766
60	0xbd7d3471	-0.06181759
61	0x3e433b3a	0.19065562
62	0xbe1f1aae	-0.15537521
63	0xbd92fd42	-0.07177211
64	0x3d89d098	0.06729239
65	0xbe5fa33b	-0.21839611
66	0xbe9e8ab6	-0.30965203
67	0xbe891f76	-0.26781815
68	0x3dd16cfa	0.10225864
69	0x3d59fb54	0.0532182
70	0x3dd214c3	0.10257866
71	0xbd95b89e	-0.073106036
72	0xbda7fc97	-0.082024746
73	0x3e2f5352	0.17121628
74	0xbdd3b888	-0.10337931
75	0x3e1cc19e	0.15308234
76	0xbe072a69	-0.13199772
77	0x3c8ef0fb	0.017448893
78	0x3db02f8b	0.08602818
79	0x3d15b95f	0.036553737
80	0x3df61b8f	0.12016975
81	0x3e051ff1	0.13000466
82	0x3d749bbc	0.059718832
83	0xbdbe9542	-0.093058124
84	0x3ccca0b0	0.024978966
85	0xbd816f2f	-0.06320035
86	0x3d8662b2	0.065617934
87	0x3d76fc44	0.060299173
88	0x3daa7f8f	0.08325111
89	0x3d7e4fe7	0.06208792
90	0x3ac8e002	0.0015325549
91	0x3dc88cd3	0.09792485
92	0xbdd15e7c	-0.102230996
93	0x3e58e0f7	0.21179567
94	0xbc7f19b6	-0.015570095
95	0x3dca1ff7	0.09869378
96	0x3e015971	0.12631775
97	0xbda7b8ab	-0.081895195
98	0xbe18c73e	-0.14919755
99	0x3e6de49b	0.23231737
100	0xbb1f1158	-0.0024271812
101	0x3c1b513e	0.009479819
102	0xbe4d8201	-0.20069124
103	0x3bf57f80	0.007492006
104	0x3e345bf1	0.17613198
105	0x3c6c306f	0.014415844
106	0xbe620a65	-0.22074278
107	0xbe5e07b8	-0.21682632
108	0x3dbebd23	0.09313419
109	0x3c356d88	0.011073478
110	0xbd51726c	-0.05113451
111	0xbd5a31b8	-0.05327007
112	0x3e2e1924	0.17001778
113	0xbb613613	-0.0034364506
114	0xbdfa91c9	-0.122348376
115	0xbe12893d	-0.14310165
116	0xbd987ff9	-0.07446284
117	0x3e3e828d	0.18604489
118	0xbd0d8230	-0.034547985
119	0x3e858a7c	0.26082218
120	0x3e1d6521	0.15370609
121	0xbca7ae42	-0.020468835
122	0x3e3fa30c	0.18714541
123	0xbde82525	-0.1133521
124	0xbd2eacf3	-0.042645406
125	0xbd510055	-0.051025707
126	0xbdaa776f	-0.083235614
127	0x3e46835d	0.19386049
128	0xbe39d8b4	-0.18149072
129	0xbe70759f	-0.23482369
130	0xbe46bd99	-0.19408263
131	0xbd1dcbf4	-0.038524583
132	0x3e4473b8	0.19184768
133	0x3dc699b7	0.096972875
134	0x3cc7ab49	0.024373667
135	0xbccb6fdb	-0.02483361
136	0x3de29bf9	0.11064906
137	0x3cd3b19b	0.025841525
138	0xbbe030e4	-0.0068417657
139	0xbe2694ee	-0.1626775
140	0xbe8c34ff	-0.27384183
141	0xbdc10d3f	-0.094263546
142	0x3e628919	0.22122611
143	0x3ddc1f23	0.10748126
144	0xbdbbd22d	-0.09170947
145	0x3e1997e7	0.14999352
146	0xbe6383c8	-0.2221824
147	0x3d88d60e	0.06681453
148	0x3e5c572b	0.21517627
149	0xbe4d4e1f	-0.20049332
150	0x3ca238d4	0.019802488
151	0x3cced1c9	0.025246518
152	0xbd89b14e	-0.06723271
153	0x3ce84a86	0.028355848
154	0x3d089698	0.033346742
155	0xbe4be287	-0.19910632
156	0x3e25bf8e	0.16186354
157	0xbb68832f	-0.0035478582
158	0x3e182a28	0.14859831
159	0x3e366440	0.1781168
160	0xbd973105	-0.073823966
161	0xbc2babb1	-0.010477946
162	0xbbf0d5d7	-0.0073497104
163	0xbce2aeea	-0.027671296
164	0x3db1cd25	0.08681706
165	0x3c666a04	0.014063362
166	0xbe206531	-0.15663601
167	0x3e568050	0.20947385
168	0xbe13623c	-0.14392942
169	0x3e021c06	0.12706003
170	0x3d665b4c	0.05623941
171	0x3d4e87c7	0.050422456
172	0x3d843c80	0.06456852
173	0xbd25a4a4	-0.040440217
174	0x3d085a16	0.033289038
175	0xbd8175fc	-0.06321332
176	0x3d4ab35c	0.049487457
177	0xbe18f4ae	-0.14937088
178	0x3e5cf7d4	0.21578914
179	0xbcd883bb	-0.026430001
180	0x3e2e7252	0.17035797
181	0xbe222c98	-0.15837324
182	0xbe617564	-0.22017437
183	0xbd9354fd	-0.071939446
184	0xbbf1ff33	-0.0073851584
185	0xbe0fef0b	-0.14056031
186	0xbe632a52	-0.22184113
187	0xbe48c15e	-0.19605014
188	0x3dfa2047	0.12213188
189	0xbd47f45b	-0.04881702
190	0x3e06beae	0.13158676
191	0x3d580d2e	0.052746944
192	0xbe83cfc5	-0.25744453
193	0xbe0516f5	-0.12997039
194	0xbe15e574	-0.1463831
195	0xbd3d6d69	-0.04624692
196	0xbde6ee5e	-0.11275934
197	0x3dbdb8f4	0.09263793
198	0x3a1b737a	0.0005929988
199	0x3e702f02	0.23455432
200	0xbd7d49b4	-0.061837867
201	0x3e616852	0.22012451
202	0xbe6fbd32	-0.23412016
203	0x3e5313d0	0.20613027
204	0x3e351ffa	0.1768798
205	0x3e11616a	0.14197317
206	0xbde93e52	-0.1138884
207	0x3e0bf5c7	0.13667975
208	0xbe22b3da	-0.1588892
209	0xbdcb8eaa	-0.099393204
210	0x3e07b771	0.13253571
211	0xbd2f1134	-0.042741016
212	0xbe297c51	-0.16551329
213	0x3cc32b7b	0.023824444
214	0xbe6c523d	-0.23078246
215	0x3dd58130	0.10425031
216	0x3d01f34e	0.031726174
217	0xbb0a8463	-0.0021136038
218	0x3e7337b5	0.2375172
219	0x3e1157b5	0.14193614
220	0x3c73c863	0.014879319
221	0x3e360e65	0.17778929
222	0xbd8973cb	-0.06711539
223	0xbd9c5eb6	-0.07635252
224	0xbdeeb5a1	-0.11655737
225	0xbe85df7b	-0.26147065
226	0xbd6d4d70	-0.05793518
227	0x3e409cfb	0.18809883
228	0x3b5f40ca	0.0034065717
229	0x3e6c6771	0.23086335
230	0x3da53f66	0.08068733
231	0x3e09ce0c	0.13457507
232	0xbd1c4dbd	-0.038160075
233	0x3c91a081	0.01777673
234	0x3e11d490	0.14241242
235	0x3e1571f6	0.14594254
236	0xbd2501da	-0.04028497
237	0x3ddf4c51	0.10903228
238	0x3dbb3bf1	0.09142292
239	0xbe0ff6d2	-0.14058998
240	0x3e21ae15	0.15789063
241	0xbd6e4339	-0.058169577
242	0xbdb956f4	-0.09049788
243	0xbe83c0a1	-0.25732902
244	0xbccfcba0	-0.02536565
245	0xbdfbcd4c	-0.12295017
246	0x3e593128	0.21210158
247	0x3c6c059b	0.014405633
248	0xbe25def5	-0.16198333
249	0x3d84bbe3	0.06481149
250	0xbe68285c	-0.22671646
251	0x3ca06aa7	0.019582106
252	0xbdddc08a	-0.108277395
253	0xbbea2b60	-0.007146284
254	0x3e02714d	0.12738533
255	0xbd9f9af1	-0.077932246

fc2.bias f4 [10]
0	0xbd514f92	-0.051101275
1	0xbd443abe	-0.047907583
2	0xbd6a8734	-0.057257846
3	0xbe2bde90	-0.1678412
4	0xbd7b033b	-0.061282378
5	0xbda172a8	-0.07883197
6	0xbe0283d4	-0.12745601
7	0xbe363f94	-0.1779769
8	0xbdd4d3a3	-0.10391929
9	0x390d00ae	0.00013447061
